====================================================================================================
Layer (type:depth-idx)                             Output Shape              Param #
====================================================================================================
ClassificationTransformer                          [1, 200]                  --
├─Embeddings: 1-1                                  [1, 65, 128]              8,448
│    └─PatchEmbeddings: 2-1                        [1, 64, 128]              --
│    │    └─Conv2d: 3-1                            [1, 128, 8, 8]            98,432
├─Encoder: 1-2                                     [1, 65, 128]              --
│    └─ModuleList: 2-2                             --                        --
│    │    └─Block: 3-2                             [1, 65, 128]              198,272
│    │    └─Block: 3-3                             [1, 65, 128]              198,272
│    │    └─Block: 3-4                             [1, 65, 128]              198,272
│    │    └─Block: 3-5                             [1, 65, 128]              198,272
│    │    └─Block: 3-6                             [1, 65, 128]              198,272
│    │    └─Block: 3-7                             [1, 65, 128]              198,272
│    │    └─Block: 3-8                             [1, 65, 128]              198,272
│    │    └─Block: 3-9                             [1, 65, 128]              198,272
├─Linear: 1-3                                      [1, 200]                  25,800
====================================================================================================
Total params: 1,718,856
Trainable params: 1,718,856
Non-trainable params: 0
Total mult-adds (Units.MEGABYTES): 7.91
====================================================================================================
Input size (MB): 0.20
Forward/backward pass size (MB): 5.92
Params size (MB): 6.84
…
