=========================================================================================================
Layer (type:depth-idx)                                  Output Shape              Param #
=========================================================================================================
Sequential                                              [1, 200]                  --
├─Sequential: 1-1                                       [1, 32, 32, 32]           --
│    └─Conv2d: 2-1                                      [1, 32, 64, 64]           4,736
│    └─ReLU: 2-2                                        [1, 32, 64, 64]           --
│    └─BatchNorm2d: 2-3                                 [1, 32, 64, 64]           64
│    └─MaxPool2d: 2-4                                   [1, 32, 32, 32]           --
├─Sequential: 1-2                                       [1, 64, 32, 32]           --
│    └─BottleneckBlockLateNorm: 2-5                     [1, 64, 32, 32]           --
│    │    └─Conv2d: 3-1                                 [1, 32, 32, 32]           1,056
│    │    └─ReLU: 3-2                                   [1, 32, 32, 32]           --
│    │    └─BatchNorm2d: 3-3                            [1, 32, 32, 32]           64
│    │    └─Conv2d: 3-4                                 [1, 32, 32, 32]           9,248
│    │    └─ReLU: 3-5                                   [1, 32, 32, 32]           --
│    │    └─BatchNorm2d: 3-6                            [1, 32, 32, 32]           64
│    │    └─Sequential: 3-7                             [1, 32, 32, 32]           --
│    │    └─Conv2d: 3-8                                 [1, 64, 32, 32]           2,112
│    │    └─Sequential: 3-9                             [1, 64, 32, 32]           2,240
│    │    └─ReLU: 3-10                                  [1, 64, 32, 32]           --
│    │    └─BatchNorm2d: 3-11                           [1, 64, 32, 32]           128
│    └─BottleneckBlockLateNorm: 2-6                     [1, 64, 32, 32]           --
│    │    └─Conv2d: 3-12                                [1, 32, 32, 32]           2,080
│    │    └─ReLU: 3-13                                  [1, 32, 32, 32]           --
│    │    └─BatchNorm2d: 3-14                           [1, 32, 32, 32]           64
│    │    └─Conv2d: 3-15                                [1, 32, 32, 32]           9,248
│    │    └─ReLU: 3-16                                  [1, 32, 32, 32]           --
│    │    └─BatchNorm2d: 3-17                           [1, 32, 32, 32]           64
│    │    └─Sequential: 3-18                            [1, 32, 32, 32]           --
│    │    └─Conv2d: 3-19                                [1, 64, 32, 32]           2,112
│    │    └─ReLU: 3-20                                  [1, 64, 32, 32]           --
│    │    └─BatchNorm2d: 3-21                           [1, 64, 32, 32]           128
│    └─BottleneckBlockLateNorm: 2-7                     [1, 64, 32, 32]           --
│    │    └─Conv2d: 3-22                                [1, 32, 32, 32]           2,080
│    │    └─ReLU: 3-23                                  [1, 32, 32, 32]           --
│    │    └─BatchNorm2d: 3-24                           [1, 32, 32, 32]           64
│    │    └─Conv2d: 3-25                                [1, 32, 32, 32]           9,248
│    │    └─ReLU: 3-26                                  [1, 32, 32, 32]           --
│    │    └─BatchNorm2d: 3-27                           [1, 32, 32, 32]           64
│    │    └─Sequential: 3-28                            [1, 32, 32, 32]           --
│    │    └─Conv2d: 3-29                                [1, 64, 32, 32]           2,112
│    │    └─ReLU: 3-30                                  [1, 64, 32, 32]           --
│    │    └─BatchNorm2d: 3-31                           [1, 64, 32, 32]           128
├─ClassificationTransformer: 1-3                        [1, 200]                  --
│    └─Embeddings: 2-8                                  [1, 65, 512]              33,792
│    │    └─PatchEmbeddings: 3-32                       [1, 64, 512]              524,800
│    │    └─Dropout: 3-33                               [1, 65, 512]              --
│    └─Encoder: 2-9                                     [1, 65, 512]              --
│    │    └─ModuleList: 3-34                            --                        12,609,536
│    │    └─LayerNorm: 3-35                             [1, 65, 512]              1,024
│    └─Linear: 2-10                                     [1, 200]                  102,600
=========================================================================================================
Total params: 13,318,856
Trainable params: 13,318,856
Non-trainable params: 0
Total mult-adds (Units.MEGABYTES): 108.10
=========================================================================================================
Input size (MB): 0.20
Forward/backward pass size (MB): 21.68
Params size (MB): 53.14
…
