====================================================================================================
Layer (type:depth-idx)                             Output Shape              Param #
====================================================================================================
ClassificationTransformer                          [1, 200]                  --
├─Embeddings: 1-1                                  [1, 65, 256]              16,896
│    └─PatchEmbeddings: 2-1                        [1, 64, 256]              --
│    │    └─Conv2d: 3-1                            [1, 256, 8, 8]            196,864
├─Encoder: 1-2                                     [1, 65, 256]              --
│    └─ModuleList: 2-2                             --                        --
│    │    └─Block: 3-2                             [1, 65, 256]              789,760
│    │    └─Block: 3-3                             [1, 65, 256]              789,760
│    │    └─Block: 3-4                             [1, 65, 256]              789,760
│    │    └─Block: 3-5                             [1, 65, 256]              789,760
├─Linear: 1-3                                      [1, 200]                  51,400
====================================================================================================
Total params: 3,424,200
Trainable params: 3,424,200
Non-trainable params: 0
Total mult-adds (Units.MEGABYTES): 15.81
====================================================================================================
Input size (MB): 0.20
Forward/backward pass size (MB): 5.99
Params size (MB): 13.63
…
