====================================================================================================
Layer (type:depth-idx)                             Output Shape              Param #
====================================================================================================
ClassificationTransformer                          [1, 200]                  --
├─Embeddings: 1-1                                  [1, 257, 256]             66,048
│    └─PatchEmbeddings: 2-1                        [1, 256, 256]             --
│    │    └─Conv2d: 3-1                            [1, 256, 16, 16]          49,408
├─Encoder: 1-2                                     [1, 257, 256]             --
│    └─ModuleList: 2-2                             --                        --
│    │    └─Block: 3-2                             [1, 257, 256]             789,760
│    │    └─Block: 3-3                             [1, 257, 256]             789,760
│    │    └─Block: 3-4                             [1, 257, 256]             789,760
│    │    └─Block: 3-5                             [1, 257, 256]             789,760
├─Linear: 1-3                                      [1, 200]                  51,400
====================================================================================================
Total params: 3,325,896
Trainable params: 3,325,896
Non-trainable params: 0
Total mult-adds (Units.MEGABYTES): 15.86
====================================================================================================
Input size (MB): 0.20
Forward/backward pass size (MB): 23.68
Params size (MB): 13.04
…
