====================================================================================================
Layer (type:depth-idx)                             Output Shape              Param #
====================================================================================================
ClassificationTransformer                          [1, 200]                  --
├─Embeddings: 1-1                                  [1, 65, 64]               4,224
│    └─PatchEmbeddings: 2-1                        [1, 64, 64]               --
│    │    └─Conv2d: 3-1                            [1, 64, 8, 8]             49,216
├─Encoder: 1-2                                     [1, 65, 64]               --
│    └─ModuleList: 2-2                             --                        --
│    │    └─Block: 3-2                             [1, 65, 64]               49,984
│    │    └─Block: 3-3                             [1, 65, 64]               49,984
│    │    └─Block: 3-4                             [1, 65, 64]               49,984
│    │    └─Block: 3-5                             [1, 65, 64]               49,984
├─Linear: 1-3                                      [1, 200]                  13,000
====================================================================================================
Total params: 266,376
Trainable params: 266,376
Non-trainable params: 0
Total mult-adds (Units.MEGABYTES): 3.36
====================================================================================================
Input size (MB): 0.20
Forward/backward pass size (MB): 1.50
Params size (MB): 1.05
Estimated Total Size (MB): 2.74
…
