====================================================================================================
Layer (type:depth-idx)                             Output Shape              Param #
====================================================================================================
ClassificationTransformer                          [1, 200]                  --
├─Embeddings: 1-1                                  [1, 257, 128]             33,024
│    └─PatchEmbeddings: 2-1                        [1, 256, 128]             --
│    │    └─Conv2d: 3-1                            [1, 128, 16, 16]          24,704
├─Encoder: 1-2                                     [1, 257, 128]             --
│    └─ModuleList: 2-2                             --                        --
│    │    └─Block: 3-2                             [1, 257, 128]             198,272
│    │    └─Block: 3-3                             [1, 257, 128]             198,272
│    │    └─Block: 3-4                             [1, 257, 128]             198,272
│    │    └─Block: 3-5                             [1, 257, 128]             198,272
├─Linear: 1-3                                      [1, 200]                  25,800
====================================================================================================
Total params: 876,616
Trainable params: 876,616
Non-trainable params: 0
Total mult-adds (Units.MEGABYTES): 7.14
====================================================================================================
Input size (MB): 0.20
Forward/backward pass size (MB): 11.84
Params size (MB): 3.37
Estimated Total Size (MB): 15.41
…
