=========================================================================================================
Layer (type:depth-idx)                                  Output Shape              Param #
=========================================================================================================
Sequential                                              [1, 200]                  --
├─Sequential: 1-1                                       [1, 32, 32, 32]           --
│    └─Conv2d: 2-1                                      [1, 32, 64, 64]           4,736
│    └─BatchNorm2d: 2-2                                 [1, 32, 64, 64]           64
│    └─ReLU: 2-3                                        [1, 32, 64, 64]           --
│    └─MaxPool2d: 2-4                                   [1, 32, 32, 32]           --
├─Sequential: 1-2                                       [1, 64, 32, 32]           --
│    └─BottleneckBlock: 2-5                             [1, 64, 32, 32]           --
│    │    └─Conv2d: 3-1                                 [1, 32, 32, 32]           1,056
│    │    └─BatchNorm2d: 3-2                            [1, 32, 32, 32]           64
│    │    └─ReLU: 3-3                                   [1, 32, 32, 32]           --
│    │    └─Conv2d: 3-4                                 [1, 32, 32, 32]           9,248
│    │    └─BatchNorm2d: 3-5                            [1, 32, 32, 32]           64
│    │    └─ReLU: 3-6                                   [1, 32, 32, 32]           --
│    │    └─Sequential: 3-7                             [1, 32, 32, 32]           --
│    │    └─Conv2d: 3-8                                 [1, 64, 32, 32]           2,112
│    │    └─BatchNorm2d: 3-9                            [1, 64, 32, 32]           128
│    │    └─Sequential: 3-10                            [1, 64, 32, 32]           2,240
│    │    └─ReLU: 3-11                                  [1, 64, 32, 32]           --
│    └─BottleneckBlock: 2-6                             [1, 64, 32, 32]           --
│    │    └─Conv2d: 3-12                                [1, 32, 32, 32]           2,080
│    │    └─BatchNorm2d: 3-13                           [1, 32, 32, 32]           64
│    │    └─ReLU: 3-14                                  [1, 32, 32, 32]           --
│    │    └─Conv2d: 3-15                                [1, 32, 32, 32]           9,248
│    │    └─BatchNorm2d: 3-16                           [1, 32, 32, 32]           64
│    │    └─ReLU: 3-17                                  [1, 32, 32, 32]           --
│    │    └─Sequential: 3-18                            [1, 32, 32, 32]           --
│    │    └─Conv2d: 3-19                                [1, 64, 32, 32]           2,112
│    │    └─BatchNorm2d: 3-20                           [1, 64, 32, 32]           128
│    │    └─ReLU: 3-21                                  [1, 64, 32, 32]           --
│    └─BottleneckBlock: 2-7                             [1, 64, 32, 32]           --
│    │    └─Conv2d: 3-22                                [1, 32, 32, 32]           2,080
│    │    └─BatchNorm2d: 3-23                           [1, 32, 32, 32]           64
│    │    └─ReLU: 3-24                                  [1, 32, 32, 32]           --
│    │    └─Conv2d: 3-25                                [1, 32, 32, 32]           9,248
│    │    └─BatchNorm2d: 3-26                           [1, 32, 32, 32]           64
│    │    └─ReLU: 3-27                                  [1, 32, 32, 32]           --
│    │    └─Sequential: 3-28                            [1, 32, 32, 32]           --
│    │    └─Conv2d: 3-29                                [1, 64, 32, 32]           2,112
│    │    └─BatchNorm2d: 3-30                           [1, 64, 32, 32]           128
│    │    └─ReLU: 3-31                                  [1, 64, 32, 32]           --
├─ClassificationTransformer: 1-3                        [1, 200]                  --
│    └─Embeddings: 2-8                                  [1, 257, 256]             66,048
│    │    └─PatchEmbeddings: 3-32                       [1, 256, 256]             65,792
│    │    └─Dropout: 3-33                               [1, 257, 256]             --
│    └─Encoder: 2-9                                     [1, 257, 256]             --
│    │    └─ModuleList: 3-34                            --                        3,159,040
│    │    └─LayerNorm: 3-35                             [1, 257, 256]             512
│    └─Linear: 2-10                                     [1, 200]                  51,400
=========================================================================================================
Total params: 3,389,896
Trainable params: 3,389,896
Non-trainable params: 0
Total mult-adds (Units.MEGABYTES): 81.86
=========================================================================================================
Input size (MB): 0.20
Forward/backward pass size (MB): 33.65
Params size (MB): 13.30
…
