====================================================================================================
Layer (type:depth-idx)                             Output Shape              Param #
====================================================================================================
ClassificationTransformer                          [1, 200]                  --
├─Embeddings: 1-1                                  [1, 257, 48]              12,384
│    └─PatchEmbeddings: 2-1                        [1, 256, 48]              --
│    │    └─Conv2d: 3-1                            [1, 48, 16, 16]           9,264
├─Encoder: 1-2                                     [1, 257, 48]              --
│    └─ModuleList: 2-2                             --                        --
│    │    └─Block: 3-2                             [1, 257, 48]              34,480
│    │    └─Block: 3-3                             [1, 257, 48]              34,480
│    │    └─Block: 3-4                             [1, 257, 48]              34,480
│    │    └─Block: 3-5                             [1, 257, 48]              34,480
│    │    └─Block: 3-6                             [1, 257, 48]              34,480
│    │    └─Block: 3-7                             [1, 257, 48]              34,480
├─Linear: 1-3                                      [1, 200]                  9,800
====================================================================================================
Total params: 238,328
Trainable params: 238,328
Non-trainable params: 0
Total mult-adds (Units.MEGABYTES): 2.59
====================================================================================================
Input size (MB): 0.20
Forward/backward pass size (MB): 7.40
Params size (MB): 0.90
Estimated Total Size (MB): 8.50
…
