====================================================================================================
Layer (type:depth-idx)                             Output Shape              Param #
====================================================================================================
ClassificationTransformer                          [1, 200]                  --
├─Embeddings: 1-1                                  [1, 257, 526]             135,708
│    └─PatchEmbeddings: 2-1                        [1, 256, 526]             --
│    │    └─Conv2d: 3-1                            [1, 526, 16, 16]          101,518
├─Encoder: 1-2                                     [1, 257, 526]             --
│    └─ModuleList: 2-2                             --                        --
│    │    └─Block: 3-2                             [1, 257, 526]             2,185,496
│    │    └─Block: 3-3                             [1, 257, 526]             2,185,496
│    │    └─Block: 3-4                             [1, 257, 526]             2,185,496
│    │    └─Block: 3-5                             [1, 257, 526]             2,185,496
│    │    └─Block: 3-6                             [1, 257, 526]             2,185,496
│    │    └─Block: 3-7                             [1, 257, 526]             2,185,496
├─Linear: 1-3                                      [1, 200]                  105,400
====================================================================================================
Total params: 13,455,602
Trainable params: 13,455,602
Non-trainable params: 0
Total mult-adds (Units.MEGABYTES): 39.21
====================================================================================================
Input size (MB): 0.20
Forward/backward pass size (MB): 59.06
Params size (MB): 53.28
…
