====================================================================================================
Layer (type:depth-idx)                             Output Shape              Param #
====================================================================================================
ClassificationTransformer                          [1, 200]                  --
├─Embeddings: 1-1                                  [1, 257, 96]              24,768
│    └─PatchEmbeddings: 2-1                        [1, 256, 96]              --
│    │    └─Conv2d: 3-1                            [1, 96, 16, 16]           18,528
├─Encoder: 1-2                                     [1, 257, 96]              --
│    └─ModuleList: 2-2                             --                        --
│    │    └─Block: 3-2                             [1, 257, 96]              136,544
│    │    └─Block: 3-3                             [1, 257, 96]              136,544
│    │    └─Block: 3-4                             [1, 257, 96]              136,544
│    │    └─Block: 3-5                             [1, 257, 96]              136,544
├─Linear: 1-3                                      [1, 200]                  19,400
====================================================================================================
Total params: 608,872
Trainable params: 608,872
Non-trainable params: 0
Total mult-adds (Units.MEGABYTES): 5.31
====================================================================================================
Input size (MB): 0.20
Forward/backward pass size (MB): 9.94
Params size (MB): 2.34
Estimated Total Size (MB): 12.47
…
