====================================================================================================
Layer (type:depth-idx)                             Output Shape              Param #
====================================================================================================
ClassificationTransformer                          [1, 200]                  --
├─Embeddings: 1-1                                  [1, 257, 48]              12,384
│    └─PatchEmbeddings: 2-1                        [1, 256, 48]              --
│    │    └─Conv2d: 3-1                            [1, 48, 16, 16]           9,264
├─Encoder: 1-2                                     [1, 257, 48]              --
│    └─ModuleList: 2-2                             --                        --
│    │    └─Block: 3-2                             [1, 257, 48]              34,480
│    │    └─Block: 3-3                             [1, 257, 48]              34,480
│    │    └─Block: 3-4                             [1, 257, 48]              34,480
│    │    └─Block: 3-5                             [1, 257, 48]              34,480
├─Linear: 1-3                                      [1, 200]                  9,800
====================================================================================================
Total params: 169,368
Trainable params: 169,368
Non-trainable params: 0
Total mult-adds (Units.MEGABYTES): 2.52
====================================================================================================
Input size (MB): 0.20
Forward/backward pass size (MB): 4.97
Params size (MB): 0.63
Estimated Total Size (MB): 5.79
…
